models/checkpoint_1900.pth (torch_old, 2477 bytes, 4 tensors)

fc.weight f4 [32, 8]
000000 03 39 55 bf 22 e1 11 bf 6c 61 8b 3f 06 51 98 3d
       -0.8329012 -0.5698415 1.0889106 0.07437329
000010 75 a1 9c 3f 93 6c e2 3f 70 57 d7 3f 7e dc 1d bf
       1.2236773 1.7689384 1.6823559 -0.6166457
000020 f4 0f 98 3e a2 65 8a 40 b6 6a 89 c0 ab e1 0e c1
       0.2969967 4.3249063 -4.294276 -8.930095
000030 57 1a 43 3f e1 6f 57 c0 10 aa 3e bf b9 93 9e be
       0.76212066 -3.3662035 -0.74478245 -0.30972078
000040 71 e9 68 3d 03 07 35 c0 5b 5e db 40 01 1b 8c 40
       0.056863252 -2.828553 6.855268 4.3782964
000050 9f 30 30 c0 6b 21 b6 be 70 6e c8 3f 45 37 e1 3e
       -2.7529676 -0.3557237 1.5658703 0.4398748
000060 b3 c3 a0 40 21 7c 8d bf 25 2c 9e 40 24 48 e3 be
       5.023889 -1.1053506 4.9428887 -0.44390976
000070 62 b3 47 bf 7f b6 c9 be 4a b8 a8 be 11 3a a9 3f
       -0.7800809 -0.39397046 -0.329531 1.3220845
000080 2d bc 01 c0 78 c6 e4 bf 7c 2e a7 bf 1c 90 84 bf
       -2.0271103 -1.7873068 -1.3061061 -1.0356479
000090 7e af 79 40 f9 c9 ba 3f 2d f1 4d 3e 19 ad 0b bf
       3.9013362 1.4592887 0.20111533 -0.54561
0000a0 28 d9 3f c0 c7 db 39 3f b2 59 64 c0 e6 12 bd bf
       -2.9976292 0.7260098 -3.5679746 -1.4771392
0000b0 b0 34 36 3f a8 ea 5d 3c 75 69 80 be e4 31 47 bd
       0.71174145 0.013544716 -0.25080457 -0.048631564
0000c0 5c e2 1a be 88 4c c9 be bf db 0e 41 d0 2f c9 40
       -0.15125412 -0.393162 8.928649 6.2870865
0000d0 a4 91 84 c0 fa a2 be 3f a0 4c ef 3e 36 b3 f2 3f
       -4.1427784 1.4893486 0.46738148 1.8960941
0000e0 70 93 c8 bf d5 92 4a c0 a7 8e 2e 40 77 9f 7f c0
       -1.5669994 -3.165212 2.7274568 -3.994108
0000f0 7c bc 56 c0 18 ee 08 40 31 24 87 3f 97 94 68 3f
       -3.3552542 2.139532 1.055792 0.9085173
000100 ff 88 77 bf b4 0e 66 3e 8f 42 36 be 3b 74 aa 40
       -0.96693414 0.22466546 -0.17798828 5.3266883
000110 b3 c4 17 40 56 ba 6e 40 08 50 47 3f 6c ee 2a bf
       2.3713806 3.730123 0.77856493 -0.6677005
000120 75 d8 6f 3f 53 56 8a 3f ca 62 0b 40 2e e3 1a 40
       0.9368966 1.0807594 2.1779046 2.420116
000130 3d fe 92 c0 27 00 b0 c0 ff 9f d5 bf a7 60 44 3f
       -4.593535 -5.5000186 -1.6689452 0.7670998
000140 8a 0c 3d be 54 f7 ec bf 9e e2 4b 40 3d c2 f3 3f
       -0.18461815 -1.8512979 3.1857066 1.9043652
000150 da 46 08 c0 22 ae 24 3f b4 76 eb 3f 43 1d 89 be
       -2.1293244 0.64328206 1.83956 -0.26780137
000160 ed c4 20 40 77 37 97 3e 61 d5 46 3f 02 0b 2c 40
       2.5120194 0.29534504 0.7766934 2.6881719
000170 86 fb 26 40 cd 8d bc 40 31 4e 89 3e fa 22 2d bf
       2.6091018 5.8923097 0.26817468 -0.67631495
000180 52 7d 72 bf 9a 60 8e be 71 21 8a 3c 34 9f 0e be
       -0.94722474 -0.27808076 0.01686165 -0.13927919
000190 91 45 c5 3e bf 7b d4 40 ab 76 4b bd 67 21 96 bf
       0.38529637 6.6401057 -0.049673717 -1.1728944
0001a0 9d d4 5c c0 92 ee d5 3e 9b c7 4e c0 85 bb f6 bf
       -3.450477 0.41783577 -3.230933 -1.9275976
0001b0 c8 9c a4 3f 77 dc db bd 7f 4d 8c 3e 84 2f 87 3e
       1.2860346 -0.1073541 0.27402875 0.2640344
0001c0 2b b3 fb 3e c6 55 b3 be 43 a1 c5 c0 ba 3c a0 40
       0.49160132 -0.35026377 -6.1759353 5.007413
0001d0 ad 15 18 c1 17 7b 33 40 df c2 99 be d6 d2 ac 3f
       -9.505292 2.8043878 -0.30031487 1.3501842
0001e0 fb 52 96 be b3 17 f9 3f f0 59 d6 bf 4d 3f ac 40
       -0.29360184 1.9460357 -1.6746197 5.382727
0001f0 44 ea f7 bf 27 2b d0 3d de 52 37 c0 76 06 9e bf
       -1.9368367 0.10164481 -2.8644328 -1.2345722
000200 23 7c a4 be dd 68 a4 bf ce be 7a c0 99 e1 ca 3f
       -0.3212596 -1.2844502 -3.9178958 1.5850097
000210 5d 31 81 be ab 75 19 40 33 09 b3 bf ce 4a af bf
       -0.25232974 2.397807 -1.3987182 -1.3694704
000220 56 61 25 3f a7 20 ed bf 4c 1e 16 40 f3 ce 65 40
       0.6460165 -1.852559 2.3455992 3.5907562
000230 d7 4d 25 40 49 7a 5e 40 a7 d5 ff 3e 59 f7 07 3f
       2.582876 3.4762137 0.4996769 0.531118
000240 f5 f9 44 3f 0d e6 da 3e e8 c7 26 40 4c e2 53 40
       0.76943904 0.4275364 2.6059513 3.310687
000250 ab f6 59 c0 ba ce b3 bf 88 a6 a6 bf af cd b9 bd
       -3.4056804 -1.4047463 -1.3019571 -0.09072434
000260 44 b0 bd 3f 26 1e 25 c0 5b 73 1d 3f 30 f2 ab bf
       1.4819417 -2.579965 0.61504143 -1.3433285
000270 6d 74 47 40 5c e6 62 bf 87 a4 ab bf a8 34 7a 3f
       3.116481 -0.8863275 -1.3409585 0.977366
000280 70 39 39 3e 94 75 1a c0 f9 68 18 40 0c 77 30 bf
       0.18088317 -2.4134264 2.381407 -0.6893165
000290 c3 60 9b 3f ba f8 7c 3f 9e a8 ad 3f 00 1b 62 bd
       1.2138904 0.98817027 1.3567083 -0.05520153
0002a0 bb 18 97 bf a3 32 c1 bf 46 29 e8 3d e4 d7 9d bf
       -1.1804422 -1.5093578 0.11335997 -1.233151
0002b0 aa 35 85 40 9d 71 17 40 94 3c e8 3d 1a 00 60 3e
       4.162801 2.3663094 0.11339679 0.21875039
0002c0 56 39 e2 bf da 15 ba c0 9f bc af bf e3 8d 80 bf
       -1.7673748 -5.8151674 -1.3729438 -1.00433
0002d0 31 21 00 40 3b e8 00 bf 50 fd c2 3d 2b e7 39 bf
       2.0020258 -0.50354356 0.09520972 -0.7261836
0002e0 d0 a4 0d 3f dc f0 0e c0 d8 b2 eb 3f ae 19 b2 bf
       0.5532961 -2.233451 1.8413954 -1.3914087
0002f0 96 91 35 3f b9 71 8d 3e 50 58 d6 3f 0c 17 55 3f
       0.7092527 0.27625826 1.6745701 0.8323829
000300 4e ec 5a bf aa dd db be d6 3c 02 41 f2 06 d3 bc
       -0.8551682 -0.42942554 8.139853 -0.025760148
000310 09 2d 0c 41 0c 96 cf 3e 17 a6 8c 3f 06 6b 9b 3f
       8.760995 0.40544164 1.0988187 1.2142036
000320 15 4f e1 3f c7 94 ec 3d c1 f9 58 40 68 1e bf 3d
       1.7602259 0.115518145 3.3902438 0.093319714
000330 01 be 00 40 94 04 2b 40 b4 11 e1 3f 1e ad 2e 3f
       2.011597 2.6721544 1.7583528 0.68232906
000340 3b 16 a7 be 9b 56 0c 40 d5 82 e3 3f 84 d7 b4 c0
       -0.32634148 2.192786 1.7774302 -5.651308
000350 ce 56 c7 bf dd 49 06 c0 ab 72 44 3f a1 04 4d bf
       -1.5573366 -2.0982583 0.7673747 -0.8008519
000360 6d c0 07 3f ec 0d 0d c0 9e 0b df 3f fe c5 d3 bf
       0.53027993 -2.2039747 1.742542 -1.6544797
000370 b4 ef 45 3f 31 8f be 3e c1 db f3 3f 34 2c f0 3e
       0.7731888 0.3721862 1.9051439 0.46908724
000380 04 aa 31 c0 40 6d b9 be f1 57 89 c0 a7 ce 60 3f
       -2.776002 -0.36216164 -4.291985 0.87815326
000390 c5 c5 5c 40 77 46 3a 3f 0d 4b 33 bf 98 3e 23 bd
       3.449571 0.7276377 -0.70036393 -0.039854616
0003a0 07 4e 2d 40 41 eb a9 c0 d7 49 a4 40 5d 2f 3a c0
       2.7078874 -5.3099675 5.1340137 -2.9091408
0003b0 91 8d 5d 3f d3 fe 61 be 4f 05 0c be 8e e0 bc 3f
       0.8654414 -0.22069864 -0.136739 1.4756029
0003c0 6c a7 9b 3f d5 80 4e c0 21 fd aa bf 5b c7 5e c0
       1.2160468 -3.2266133 -1.3358499 -3.4809177
0003d0 50 c7 29 40 27 b0 4b bf 20 29 b8 be 4d 71 90 3f
       2.65279 -0.7956566 -0.35968876 1.1284577
0003e0 e6 4b 1b bf d4 e3 2a 3f aa 51 fe 3f 50 e1 3d 3d
       -0.60662687 0.6675389 1.9868672 0.046357453
0003f0 ac 56 41 c0 31 e0 8f c0 9a f3 d4 3c 05 ca 4a 3f
       -3.020915 -4.496117 0.025995065 0.7921451

fc.bias f4 [32]
000000 fe d2 86 bf 0d b1 51 40 bd ae fa bf 50 d6 a2 bf
       -1.053314 3.2764313 -1.9584576 -1.2721653
000010 23 c0 94 bf 3c 78 a1 3e 54 20 7b 3e 1b a4 5c 3f
       -1.1621135 0.31537044 0.24524051 0.86187905
000020 2b 48 ec 3f 60 b7 57 3f f2 3a a8 bf a0 02 82 bf
       1.8459524 0.84264183 -1.3142989 -1.0157051
000030 56 75 bb 3f 51 95 02 3f f7 31 4d 3f e0 6e c6 3f
       1.4645183 0.5100909 0.80154365 1.5502586
000040 7f a8 9e bf 5a d5 f7 bf 9d 9c af 3f e8 58 97 bf
       -1.2395171 -1.9361985 1.371967 -1.1824007
000050 27 4f 39 bf ab 48 ac bf 3c a3 f5 3f 2e a3 1f bf
       -0.723864 -1.3459677 1.919044 -0.6235837
000060 ff fa 22 3f e3 ea 50 3f 5e e4 f2 3f 9b aa 13 bf
       0.6366424 0.8160841 1.8975942 -0.576822
000070 e4 44 0b 3f 60 08 b5 bf 18 fe 91 bf c2 e2 3b bf
       0.54401994 -1.4143181 -1.1405668 -0.7339288

output.weight f4 [4, 32]
000000 bd fb 8f bf b8 8a 4e 40 1c ef 25 c1 f9 c6 21 c0
       -1.12487 3.2272167 -10.370876 -2.5277693
000010 0b 55 11 c0 bd 75 2b c0 22 48 e5 40 bf 52 86 3f
       -2.2708156 -2.6790612 7.1650553 1.0494002
000020 2e 6f bb bf a0 14 a6 c0 65 35 09 c0 de d2 3a c0
       -1.4643304 -5.1900177 -2.143884 -2.9191203
000030 39 33 96 c0 ca 43 02 c0 d3 a7 00 41 12 00 d2 bf
       -4.693753 -2.0353875 8.040973 -1.6406271
000040 d6 36 f7 c0 3d 3d 15 c0 67 23 44 c0 fa 4f 87 bf
       -7.725444 -2.3318627 -3.0646608 -1.0571282
000050 7c 7f 20 bf 7d a5 8d c0 d2 da b0 3f 42 cd c7 be
       -0.62694526 -4.426451 1.3816779 -0.39023787
000060 62 4c d6 40 0f 3a 0b c0 4f a6 e2 3f 77 5d d9 be
       6.696824 -2.1754186 1.7707003 -0.4245412
000070 e6 0d d5 bf a2 58 03 c0 57 ea 2f c0 ba 9d 85 c0
       -1.6644866 -2.0522847 -2.748678 -4.1755037
000080 8c e4 3d bf a6 48 40 40 ce cf bd c0 e7 e1 06 c0
       -0.7417686 3.004434 -5.931617 -2.107538
000090 60 12 f3 bf 47 16 49 c0 ff 91 ff 40 80 4a b0 3f
       -1.8989983 -3.1419847 7.986572 1.3772736
0000a0 fa 6a ad c0 40 40 96 c0 15 25 36 c0 36 69 92 c0
       -5.4193087 -4.695343 -2.8460133 -4.575343
0000b0 94 c8 9a 3e e2 1e d4 bf 61 29 fa 40 1b de 33 c0
       0.30231154 -1.6571925 7.817551 -2.8104312
0000c0 c6 1e 54 c0 68 cf b3 bf c2 0c 0c c0 55 54 05 bf
       -3.3143783 -1.404767 -2.1882787 -0.52081805
0000d0 57 3f 5b bf 85 48 c6 bf 30 84 1f 40 7b 3f f6 bf
       -0.85643524 -1.5490881 2.492443 -1.9238123
0000e0 4f fe a8 40 53 92 31 c0 bf c9 4d 40 d0 90 b1 bf
       5.2810435 -2.774556 3.2154386 -1.3872318
0000f0 fa 2d 12 c0 30 2f 09 c0 6c f4 c8 c0 2f d0 16 c0
       -2.2840562 -2.143505 -6.2798367 -2.3564565
000100 ed f3 3f c0 f5 ab 53 40 a6 1b 67 c0 5d da 37 c0
       -2.999263 3.3073704 -3.6110625 -2.8727028
000110 93 0a 07 c0 25 f6 dd bf 1c 80 2b 40 76 fb 80 40
       -2.1100204 -1.7340742 2.6796942 4.030696
000120 eb a6 90 c0 f1 86 9a c0 bc 07 ce bf 09 22 88 c0
       -4.5203757 -4.8289723 -1.609611 -4.2541547
000130 38 1e 0f 3f d2 74 37 bf a4 6f eb 40 c4 74 a9 c0
       0.55905485 -0.7166263 7.357378 -5.2955036
000140 a8 dd ff bf ef 40 e4 bf bf b2 0e c0 bf 3d a7 bf
       -1.9989519 -1.7832316 -2.2296598 -1.3065718
000150 c0 cd 08 c0 a1 60 92 c0 10 9b 02 3f 14 93 5e bf
       -2.137558 -4.5742955 0.51017857 -0.86943173
000160 54 63 c2 40 d1 c7 c4 bf ce d9 4d 40 6b 36 23 bf
       6.074625 -1.5373479 3.2164187 -0.6375491
000170 f7 ae 78 c0 9a 01 9a bf ec 4f b8 bf c1 ca b8 bf
       -3.885679 -1.2031739 -1.439939 -1.4436876
000180 36 1c 7b bf 14 94 a2 40 2d a7 41 c0 d4 88 21 c0
       -0.9808992 5.080576 -3.0258286 -2.5239763
000190 21 d2 33 c0 1e 1d 43 c0 ee cd c6 40 dd 6f 58 3f
       -2.8097003 -3.0486522 6.212638 0.8454569
0001a0 17 13 1b c0 eb da 71 c0 8c 38 be bf 32 f1 6b c0
       -2.4230402 -3.7789867 -1.4861007 -3.6865964
0001b0 63 65 cf bf 4a 06 ce bf e5 93 b8 40 a1 9d 62 c0
       -1.6202816 -1.6095669 5.7680535 -3.540871
0001c0 aa f7 49 3f 16 e2 6f c0 2b c5 a0 c0 d7 70 81 c0
       0.7889353 -3.7481742 -5.0240684 -4.0450244
0001d0 78 97 6e bf 00 a6 7d c0 f1 05 1b 40 cf bc 54 bf
       -0.9319987 -3.9632568 2.4222376 -0.831006
0001e0 b8 9b dc 40 ad 3c 95 bf 1f 17 39 bf bd 7a 82 bf
       6.8940086 -1.1659142 -0.72300905 -1.0193707
0001f0 46 84 9f be 1a 2c 4d c0 6c b9 87 c0 48 e5 e7 bf
       -0.31155604 -3.2058167 -4.2413845 -1.8116846

output.bias f4 [4]
000000 7b a1 1b 40 2f 31 b2 3f ef de 84 3f 43 14 05 40
       2.431731 1.392126 1.0380534 2.0793617
